net.pth (torch, 4823 bytes, 5 tensors)

layer1.weight f4 [6, 1, 3, 3]
000000 56 84 b3 3e 90 03 4a bc 11 e0 9e be af 0f 95 be
       0.35061902 -0.012329951 -0.31030324 -0.29113528
000010 f3 c1 c3 be 89 2a 12 bd 85 36 85 bd fc fb 85 3d
       -0.3823391 -0.035685096 -0.065045394 0.06542203
000020 ab 5b 8c 3c b7 c8 d7 3c ef c0 fb bd b6 5e 8c 3e
       0.017133554 0.026340825 -0.122926585 0.2741601
000030 43 9c 56 be aa 78 81 3d 75 7b 22 3c 3d 27 99 be
       -0.20958047 0.06321843 0.00991713 -0.2991275
000040 a0 8f 44 3d 25 96 d5 bd 66 64 b7 3e 26 8f 95 3e
       0.047988534 -0.104290284 0.35818785 0.29210776
000050 3b 06 a9 3d 7f f6 b0 bd 1a df a6 bd 31 0c d6 3d
       0.082531415 -0.086407654 -0.08148022 0.10451544
000060 c3 77 89 3e 23 1c d4 bc e7 e3 b3 be a0 db fd 3d
       0.26849183 -0.025892323 -0.35134813 0.12395406
000070 bd e3 ca 3e a8 cb 01 be a8 ab 97 3e c7 9b ac be
       0.39626876 -0.12675345 0.2962315 -0.337126
000080 4a e3 20 3e 2b 52 d6 be 91 98 68 be 94 cb e0 3d
       0.15711704 -0.41859564 -0.2271445 0.109763294
000090 d9 3a 59 3e b8 a5 de 3e 86 dd 3d 3d dd 30 d0 3d
       0.21213855 0.43485808 0.04635384 0.1016557
0000a0 56 ca 1e 3e 9d 9c 54 bd 04 1a 83 3d 89 6f 79 be
       0.15506873 -0.05190717 0.064014465 -0.24358954
0000b0 06 92 09 3e d4 25 0b be fc ef af 3d 5f 5f 35 3d
       0.1343461 -0.13588649 0.08590695 0.044280406
0000c0 4a 09 6b be 79 a0 1a bb c3 1a 82 be 17 26 2a 3e
       -0.22952762 -0.0023594184 -0.25411043 0.16616093
0000d0 71 78 8a bd 81 5c 91 3e
       -0.067612536 0.28390887

layer1.bias f4 [6]
000000 1e e1 8c 3e 81 b6 04 be fc 0f 4e 3e 22 20 08 3e
       0.275155 -0.12960245 0.20123285 0.13293508
000010 e2 1e 87 3e c1 ce 41 be
       0.2639075 -0.18926527

layer2.weight f4 [10, 6, 3, 3]
000000 14 6f 00 3e 5c 39 7b 3d 75 aa 58 3e 54 51 0d 3e
       0.12542373 0.061334 0.21158774 0.13800555
000010 16 1a 84 3d e2 c8 86 3e 7f 01 d1 3d 6b 33 a3 bd
       0.06450288 0.26325136 0.102053635 -0.079687916
000020 80 f9 b1 3d b5 21 96 bd c5 fe 97 bd 20 b1 26 3d
       0.086901665 -0.07330648 -0.0742164 0.040696263
000030 ad 4f 96 3d 23 e5 41 bc 59 30 3d 3d e8 18 4b bd
       0.07339416 -0.011834416 0.046188686 -0.0495843
000040 69 fb 58 be 55 eb b4 bd e3 ae 4e 3e cf ea 5d 3d
       -0.21189655 -0.088339485 0.20183901 0.05417901
000050 b0 f3 42 3e 49 ac ea 3d b8 94 0a 3d 54 83 98 3d
       0.19038272 0.11458642 0.033833236 0.07446924
000060 b3 41 c0 3d cb 4b a2 bc 1c 6b d3 3d a4 6a 00 3e
       0.09387531 -0.019811532 0.10323164 0.1254068
000070 93 1d 44 3e 5f b4 90 3d 7b e9 e3 3d 10 2a c5 bd
       0.19151907 0.07065653 0.11128517 -0.096271634
000080 a6 ff 5f 3b 77 ce 24 be 1f 5f fb bd 1e 75 a3 bd
       0.0034179478 -0.16094385 -0.12274002 -0.07981323
000090 b3 49 25 3e c5 de 2d 3e ee d4 68 3e 8f 3f 34 3e
       0.16141395 0.16979511 0.22737476 0.1760237
0000a0 47 01 af 3d 63 0a c2 bd 8f 24 02 bd dc 43 09 3e
       0.085451655 -0.09474637 -0.031773146 0.13404793
0000b0 ab 4c e1 3d b3 d1 66 bc 96 38 8c 3c 3d 40 de bd
       0.110009514 -0.014088082 0.017116826 -0.10852096
0000c0 ad ab 6b bc 3c f4 0a bd b0 ce 8b bc 11 86 d6 3d
       -0.014384192 -0.033924326 -0.01706633 0.1047479
0000d0 1f 47 b8 3c 41 8c da 3d 74 d8 b5 bd 7a 9f 8e be
       0.02249485 0.106712826 -0.08879176 -0.27856046
0000e0 2e dd bf bd 25 74 a9 3d 73 71 23 3e 06 34 4d 3b
       -0.093683586 0.08274106 0.15961246 0.0031311526
0000f0 02 c2 aa 3d 73 a8 4e 3c e0 47 4b bd 04 1c 86 3c
       0.08337785 0.012613404 -0.049629092 0.01637078
000100 d7 13 05 3e dd fe ed 3d f3 7b 26 3e 9f ba 61 3e
       0.1299585 0.11620877 0.1625822 0.22043847
000110 b9 78 07 3d 85 67 52 3e 65 75 5b 3e 25 27 b5 3d
       0.033074114 0.20547302 0.21431501 0.08845357
000120 5f 97 ad 3d 3e 84 13 3e 9a 31 60 3d 21 77 61 bd
       0.08476137 0.14405915 0.054734804 -0.05504525
000130 3a e3 3d bd 53 c2 e9 bd 44 d2 85 3d df f3 04 bd
       -0.04635928 -0.114140175 0.065342456 -0.032459136
000140 3d f7 78 3d 0d be 9a 3d ce ce be 3d e8 e5 1e bd
       0.06078266 0.075557806 0.093167886 -0.038793474
000150 65 ca e0 3d 92 c8 6c 3e 8a 8e 65 3e 7c 05 af 3d
       0.10976104 0.23123387 0.22417656 0.08545968
000160 d8 ab 31 3b 81 2c e1 3c 2d 74 f0 3d 78 41 9d 3d
       0.0027110483 0.027487041 0.11740909 0.07678503
000170 2f 23 56 3e fe 2c 10 bc 57 af ee 3b ec 5e 20 3b
       0.20911859 -0.0087997895 0.0072840857 0.002447064
000180 12 bb cb bd 88 62 40 bd 65 45 0d bd 12 90 f8 3d
       -0.0994779 -0.046968967 -0.034490008 0.12136854
000190 20 4b 58 bd 9f 59 f7 3b c5 81 d0 bd c9 2d 14 be
       -0.05280602 0.0075485255 -0.101810016 -0.1447059
0001a0 6f 8c cf bd d0 24 d7 3d 83 aa 9c 3d 4b d2 09 3e
       -0.101342075 0.10505068 0.0764971 0.13459127
0001b0 03 12 78 3d 8a d0 ed 3c 79 2f b6 bc 90 79 36 3d
       0.060564052 0.029030103 -0.022239434 0.044549525
0001c0 36 af 1b bc d7 0b 8a bd 6b 88 85 3d 96 51 a5 3b
       -0.009502223 -0.067405395 0.0652016 0.005045126
0001d0 85 2a cb bc 99 5d 05 be 31 61 16 bd 62 e3 60 3c
       -0.024800548 -0.13023986 -0.036713783 0.013726087
0001e0 65 69 0d be a9 3d c3 3d da 6f 94 3d 80 41 1e be
       -0.13809736 0.09533245 0.072478965 -0.15454674
0001f0 c8 f6 2a 3b d0 42 20 be de c1 52 3d f4 18 f4 bd
       0.0026087034 -0.15650487 0.051454417 -0.11918822
000200 7a cf 84 bc 03 60 b9 bd e3 4a 1f bd 4c 4a 11 bd
       -0.016212214 -0.09051516 -0.038889777 -0.035471246
000210 8b ea 67 bc d8 ec e1 3c 8c f7 cd 3d 98 83 ce 3d
       -0.0141550405 0.027578756 0.100569814 0.10083693
000220 d9 c0 94 3d 3d 96 19 bc 6a 52 b4 bc 66 04 7f 3c
       0.07263345 -0.0093741985 -0.022011954 0.0155650135
000230 54 77 13 be ce 46 e7 3c 72 7e 21 be 85 6f 9c 3d
       -0.14400989 0.028232004 -0.15770891 0.07638458
000240 e9 07 bb bd 63 95 f1 bd 89 27 91 3d 03 77 98 bd
       -0.09132368 -0.117960714 0.07087619 -0.07444575
000250 b3 25 3c bd 38 07 cd bd 57 6c f2 3d 9e 97 e3 3d
       -0.04593439 -0.100111425 0.118370704 0.11112903
000260 96 55 dd 3d 02 48 c7 3d 3c 15 d8 3d b2 92 fc 3c
       0.1080734 0.09730531 0.10550925 0.030831669
000270 f1 bd b2 39 d8 e5 86 3d 6f 88 e2 3d 83 0c de bd
       0.00034092323 0.06586808 0.11061179 -0.1084223
000280 78 0d f4 3c 14 cf 15 bd 3d f6 84 3c bb cd fa bd
       0.029791579 -0.03657444 0.016230697 -0.12246271
000290 bd 8a 6b bd 75 60 44 be 44 f9 66 be 60 da 62 bd
       -0.057505358 -0.1917742 -0.22556025 -0.05538404
0002a0 32 c8 47 bd 47 b5 a5 3c 52 4e 03 3c a9 b1 86 bd
       -0.048774906 0.020228041 0.0080142785 -0.06576855
0002b0 98 47 26 3d ea 58 cf 3d 8b a6 fa 3d fe b7 1d bd
       0.04059562 0.10124381 0.12238797 -0.038505547
0002c0 29 07 3c 3e 9b a7 79 3e 6c bf 4a 3e 2d ae 86 3e
       0.18362106 0.24380343 0.19799584 0.2630476
0002d0 db 21 4d be 19 7b 68 bd 4e 8a a1 bd 9a 7e 4c bd
       -0.20032446 -0.05675802 -0.07887708 -0.049925424
0002e0 a7 f7 52 bd 3d 54 21 be 4d 5d 2b 3d 10 bc 38 be
       -0.05150571 -0.1575479 0.041837025 -0.1804049
0002f0 e4 2d bc bb 7e b8 25 3d 4b 50 2f be 81 74 0a be
       -0.0057427753 0.04045915 -0.17120473 -0.13521005
000300 a3 73 ac 3d 89 87 c1 3d 5c 7f 3a 3d bc 4a b1 3b
       0.084204935 0.094496794 0.045531616 0.0054105204
000310 3c 5f 3d 3e c1 f5 5e 3e 1c 81 b9 bd d6 5e 0f be
       0.1849336 0.21773435 -0.09057829 -0.14001021
000320 e5 e1 19 be 06 f7 bf 3d 40 15 83 3d 76 15 7c 3d
       -0.15027578 0.09373288 0.064005375 0.061543904
000330 dd 05 50 bb 34 55 1e 3d d2 11 04 3e 3b 6e a2 bd
       -0.0031741776 0.038655475 0.12897423 -0.07931181
000340 77 7e a7 bb 95 19 14 3e 15 10 43 3d ee ef 51 bd
       -0.0051115113 0.14462884 0.04762276 -0.051254205
000350 d0 b4 3f bc 35 85 64 be 10 24 fc bd 3c a1 7c bd
       -0.011700824 -0.2231644 -0.12311566 -0.061677203
000360 47 ce a4 3d 46 af 3c 3e 81 c5 79 3e d6 68 ac bc
       0.08047157 0.18426237 0.24391748 -0.021046083
000370 46 a1 98 3d af 50 47 bc 57 ca 92 3d f0 52 db bd
       0.074526355 -0.012165233 0.071674995 -0.107091784
000380 3a f9 83 3d 6a d3 e1 bc 10 b4 86 3d b7 c1 e2 bd
       0.064440206 -0.02756663 0.06577313 -0.110721044
000390 37 49 1b bd 4c ab ec bd 1c 92 4e bd ea 5b 83 3a
       -0.03791162 -0.1155611 -0.05043231 0.0010021899
0003a0 a5 e9 28 bd df b9 da bc 97 c7 fc 3d 8c a9 67 3e
       -0.041238446 -0.026699958 0.12342756 0.22623271
0003b0 f9 cd 5b 3e b2 ee 16 bd 0a 51 69 3e 9c 82 bf 3c
       0.21465291 -0.03684873 0.2278482 0.02337771
0003c0 05 5c 33 bd fd 26 6f bd 7f fd 13 3e 4f 45 a5 3d
       -0.04378893 -0.05838679 0.1445217 0.0806986
0003d0 91 36 13 3d 74 ec 95 bd 58 1e 01 be bb 78 9e 3d
       0.03594071 -0.073204905 -0.12609231 0.07737871
0003e0 1c e8 b6 3c 48 a1 8c bd 5e aa ab bd 9d 1c 8b 3c
       0.022327475 -0.068666995 -0.08382104 0.016981417
0003f0 0e 0c dd 3c 84 2e 06 bb 53 cd 79 bd c6 9e cb 3d
       0.026983287 -0.0020474503 -0.060986828 0.09942393

layer2.bias f4 [10]
000000 33 52 37 3e cc a3 c5 bd 55 0c 90 bd bc f8 1b 3d
       0.1790245 -0.096503824 -0.07033602 0.03807901
000010 70 8a 60 3e cf 49 63 3e 5c 07 69 3d 70 b7 70 bd
       0.2192781 0.22196124 0.056891784 -0.05876869
000020 0c 41 c5 3c 4f 4d 14 be
       0.024078868 -0.14482616

readout.weight f4 [1, 10, 3, 3]
000000 bd f0 7d be e9 90 74 be e0 e2 81 be 15 d6 44 be
       -0.24798866 -0.23883404 -0.25368404 -0.19222291
000010 52 2f 41 be ed 68 77 be 58 a2 b5 3d b5 95 05 bd
       -0.18865708 -0.2416112 0.08868855 -0.032613475
000020 df 00 b2 bd 58 36 fd bd ce 3e b4 bc a4 1f 59 be
       -0.086915724 -0.12363881 -0.022002604 -0.21203476
000030 f1 94 44 3d 72 15 1e 3d ca 35 4f 3e c9 3a 3d 3e
       0.047993604 0.03859467 0.20235363 0.18479456
000040 bd a9 f5 3d 1b 38 43 3e 6d ba 72 bd d8 2a 84 bc
       0.11995266 0.19064371 -0.05925982 -0.01613371
000050 bb be 36 bc 72 5a 42 3d 73 70 a7 3d ae da 94 3d
       -0.011153872 0.047449537 0.08175745 0.07268272
000060 3c e3 56 bd 62 02 b5 3d 0c 18 f1 bc eb 6f 29 3d
       -0.0524628 0.08838345 -0.029430412 0.0413665
000070 46 ad b7 3d 30 bd 0f 3e 76 10 26 3e c8 85 5b 3e
       0.08968596 0.14037013 0.16217217 0.21437752
000080 83 ca 5d 3e 4a fd 24 be e0 35 19 be 7b fc f0 bd
       0.21659283 -0.16112247 -0.14961958 -0.11766907
000090 c1 19 06 be c0 d5 e4 bc 51 6d da 3c a7 c7 65 be
       -0.13095762 -0.027933955 0.026663454 -0.22439443
0000a0 97 8f 59 be 15 05 22 be 3b c9 7c be f5 ff 21 be
       -0.21246181 -0.15822251 -0.24686138 -0.15820296
0000b0 61 f1 8d be df 19 4c be ef 54 46 be ef 93 66 be
       -0.2772322 -0.19931744 -0.19368337 -0.2251737
0000c0 65 cd 2b be 08 1b fe bd ec 69 0c be 9e 27 66 be
       -0.1677757 -0.124074996 -0.13712281 -0.2247605
0000d0 50 39 42 be 3d f4 3b be 1e 58 69 be 34 a7 60 be
       -0.18967175 -0.18354888 -0.2278752 -0.21938783
0000e0 16 17 a7 be e2 f4 11 be 50 51 3d be 6d e3 83 be
       -0.326348 -0.14253572 -0.1848805 -0.2575945
0000f0 be b9 c0 3d a4 d0 20 bc 45 25 74 bd a1 86 3e 3d
       0.094104275 -0.009815369 -0.059605855 0.04651511
000100 14 1c b8 bd 6d dc c2 bd 3a 27 e2 3c 8f 5e 15 bc
       -0.089897305 -0.09514699 0.027606595 -0.009116783
000110 f5 06 45 bd f4 fe bc bc e7 1a 74 3d 78 77 4b bd
       -0.048102338 -0.02307079 0.05959597 -0.04967448
000120 0d 87 fb bd 3c 9e a1 be 91 68 57 be bb 0a 7e be
       -0.12281618 -0.31566036 -0.21035983 -0.24808781
000130 84 78 4f be 54 45 00 be 2d 60 d7 bd 02 07 78 bd
       -0.20260817 -0.12526447 -0.10516391 -0.06055356
000140 f4 0f 71 be 50 cf 80 3d 36 8f fd 3b c4 13 da 3c
       -0.23541242 0.06289542 0.0077380193 0.026620753
000150 38 63 3b bd 55 9a 6f 3d b9 19 26 3e f0 a0 47 3e
       -0.04574892 0.058496792 0.1622075 0.19494987
000160 8d cd 08 3e a1 9f 14 3e
       0.13359661 0.14514019
