net.pth (torch, 14295 bytes, 5 tensors)

layer1.weight f4 [6, 1, 3, 3]
0	0xbc2d846d	-0.010590655
1	0xbe9be6de	-0.30449575
2	0x3e92fa41	0.28706554
3	0xbe7ed54a	-0.24886051
4	0x3cb52ed7	0.022117062
5	0xbe1cdf2a	-0.15319505
6	0x3e998798	0.29986262
7	0xbd957624	-0.07297924
8	0x3df35cee	0.11882959
9	0xbe76e001	-0.24108888
10	0x3e47fb3c	0.19529432
11	0x3e81d33d	0.25356475
12	0x3de9af6c	0.11410412
13	0xbe7ed919	-0.24887504
14	0xbe8591e8	-0.2608788
15	0xbe05fb27	-0.13084088
16	0xbd5e041f	-0.05420315
17	0x3d28a803	0.041175853
18	0x3e2e93f6	0.1704863
19	0xbe1e01fa	-0.15430441
20	0x3e5b8965	0.2143913
21	0xbe8cf3fc	-0.27529895
22	0xbd8359c3	-0.06413605
23	0xbe34600d	-0.17614765
24	0x3ea493c6	0.32143992
25	0xbd0cdf37	-0.03439256
26	0xbddff3c3	-0.10935166
27	0xbe901f5b	-0.28148922
28	0xbe948baa	-0.29012805
29	0x3ea7f0a5	0.32800785
30	0xbdb91997	-0.09038084
31	0x3e58898d	0.21146221
32	0x3ea2dee9	0.31810692
33	0xbe9550f3	-0.29163322
34	0xbd93ab4e	-0.07210408
35	0x3e96490e	0.2935261
36	0x3c8eb811	0.017421754
37	0x3e77e154	0.2420705
38	0xbd9f6ce2	-0.077844396
39	0xbddf744e	-0.10910855
40	0xbe1829bc	-0.1485967
41	0xbdefd514	-0.11710563
42	0x3e340a6b	0.17582099
43	0x3e08af54	0.13348132
44	0x3c8cd68b	0.017192146
45	0xbe961237	-0.29310772
46	0xbdf1d1f3	-0.11807623
47	0xbe439c27	-0.19102536
48	0xbdfb0f42	-0.122587696
49	0xbdbceda0	-0.09225011
50	0x3c225b68	0.009909488
51	0xbdb49ed5	-0.08819357
52	0x3e461c45	0.19346721
53	0x3ea013e3	0.31265172

layer1.bias f4 [6]
0	0xbd5a3c39	-0.05328009
1	0x3e9e9320	0.30971622
2	0x3dd2733f	0.10275888
3	0xbe7d90a0	-0.24762201
4	0x3e9c58ed	0.30536595
5	0x3ea3ed90	0.32017183

layer2.weight f4 [10, 6, 7, 7]
0	0x3c72ef2b	0.01482753
1	0xbc296200	-0.010338306
2	0x3bc41b1d	0.0059846775
3	0xbcb39327	-0.021920754
4	0x3d398632	0.045293994
5	0xbd0c6dc6	-0.034284376
6	0x3c07a393	0.008278745
7	0xbd59c930	-0.053170383
8	0xbd5c84fc	-0.05383776
9	0xbd3b1e97	-0.04568347
10	0xbd14f4b6	-0.036366187
11	0x3c389e9c	0.011268284
12	0xbd059c77	-0.03261992
13	0x3ab29527	0.0013624773
14	0xbd593457	-0.05302843
15	0x3bb499ac	0.005511483
16	0x3ce05331	0.027383419
17	0x3bb222da	0.0054362835
18	0x3cecf1ec	0.028923951
19	0x3c39a053	0.011329728
20	0x39a6bdf2	0.00031803508
21	0xbc93f60f	-0.018061666
22	0xbcdded42	-0.027090672
23	0x3d29fb2b	0.041499298
24	0xbd2159d0	-0.039392292
25	0x3bdc9c72	0.006732517
26	0xbd09edfc	-0.033674225
27	0xbc7cb849	-0.015424796
28	0xbd5d3e15	-0.054014284
29	0x3d363db0	0.044492424
30	0xbcf6b25e	-0.030114349
31	0x3cda7901	0.026669027
32	0xbb080c0d	-0.0020759136
33	0xbc4bcb43	-0.012438598
34	0x3cc82d02	0.024435524
35	0xbd1677c0	-0.036735296
36	0xbc0c4ff8	-0.008563988
37	0x3cd138cf	0.025539784
38	0x3d11cfd0	0.035598576
39	0xbd559643	-0.052145254
40	0x3ca87ae4	0.020566411
41	0xbc77cd6b	-0.015124659
42	0x3c4351c4	0.01192135
43	0xbcb74def	-0.022376029
44	0x3d4b3ea6	0.049620293
45	0xbb97bd43	-0.004630716
46	0xbd3812e2	-0.044939883
47	0x3ce056df	0.027385173
48	0xbcb6e642	-0.022326592
49	0x3cd380fc	0.02581834
50	0xbd1e93f7	-0.03871533
51	0xbd3c6452	-0.04599411
52	0xbbefe83e	-0.0073213866
53	0xbd067c33	-0.03283329
54	0xbd6a7cdc	-0.05724798
55	0x3d078788	0.033088237
56	0x3cb616b8	0.02222763
57	0x3c7f6bd0	0.015589669
58	0xbcb76104	-0.022385128
59	0x3b48c15f	0.0030632836
60	0xbca42374	-0.020036437
61	0x3d568b2f	0.05237883
62	0xbd43a355	-0.047763187
63	0xbaeb482a	-0.0017950584
64	0xbb7bad0e	-0.003840271
65	0xba65fc9b	-0.0008773298
66	0xbbfa3f38	-0.007636931
67	0x3cefd8f5	0.029278258
68	0x3c1dc652	0.009629803
69	0x3cc0823f	0.023499606
70	0x3cfba1e0	0.030716836
71	0xbd50b717	-0.050955858
72	0x3bc32788	0.00595564
73	0x3c993b64	0.018705077
74	0x3b87694c	0.0041324254
75	0xbc43439d	-0.011917976
76	0x3d00ecb1	0.031475727
77	0xbd602c22	-0.05472959
78	0xbd0b2293	-0.03396852
79	0x3d518979	0.051156495
80	0x3ccf8116	0.025330108
81	0x3c464b1d	0.012102869
82	0x3a50309c	0.00079418137
83	0xbd5b76db	-0.053580146
84	0x3d3f5e44	0.046720758
85	0x3d44fab4	0.04809065
86	0xbd347f2c	-0.044066593
87	0x3ca6fb91	0.020383628
88	0xbd4f7997	-0.050653066
89	0x3d3ad3f9	0.04561231
90	0xbd343279	-0.043993447
91	0x3caef781	0.021358253
92	0xbd2c834b	-0.0421174
93	0x3c829f9f	0.015945254
94	0xbc06ee54	-0.008235533
95	0xbd1cad78	-0.03825137
96	0xbbcd2fe1	-0.006261811
97	0xbd7b6520	-0.061375737
98	0x3d4b3918	0.049614996
99	0xbd4ebd4f	-0.050473507
100	0xbcca565f	-0.024699388
101	0x3d2687a3	0.040656697
102	0xbbd0bd7c	-0.0063702445
103	0x3b87a0c5	0.0041390383
104	0xbcc46d4b	-0.023977896
105	0x3d474192	0.048646517
106	0x3ccc420d	0.02493384
107	0x3d6630b6	0.056198798
108	0xbd56d3d6	-0.052448116
109	0x3d431842	0.047630556
110	0xbc9ab1f2	-0.018883679
111	0xbd3f0056	-0.04663118
112	0xbb505259	-0.0031787364
113	0xbc635209	-0.013874539
114	0x3c97058f	0.018435268
115	0x3d4d63d0	0.050144017
116	0xbd1e0857	-0.038582172
117	0xbd341d81	-0.04397345
118	0xbd302dad	-0.04301231
119	0xbd55288c	-0.05204062
120	0xbb87735e	-0.004133626
121	0x3d15843f	0.036503073
122	0x3d22e919	0.03977308
123	0xbd3595a8	-0.044332176
124	0xbd0621bd	-0.03274702
125	0x3c7f6c8f	0.015589847
126	0x3d4c8385	0.049930114
127	0x3cdf64d6	0.027269762
128	0xbc40885f	-0.011751263
129	0x3be41fe9	0.006961812
130	0x3b9ae56c	0.0047270562
131	0x3d0e7467	0.03477898
132	0xbd036c57	-0.032085743
133	0xbd580881	-0.052742485
134	0xbc4b8c44	-0.012423579
135	0xbce85031	-0.02835855
136	0x3caeaaf6	0.021321755
137	0xbb991c67	-0.0046725753
138	0x3d2984a3	0.041386258
139	0xbd1993f3	-0.03749461
140	0xbb66fb23	-0.0035244904
141	0x3d042f37	0.03227159
142	0xbccd6f60	-0.025077522
143	0x3d2abd1f	0.041684266
144	0xbd0b34ec	-0.033986017
145	0x3d1dd7e1	0.038535956
146	0xbd1fc859	-0.039009426
147	0xbd518b8d	-0.051158477
148	0x3d744306	0.05963423
149	0x3d501ed2	0.050810643
150	0xbcdd9c3c	-0.027052037
151	0xbb2ad0fe	-0.002606451
152	0x3c31b725	0.010846888
153	0x3d15b6b7	0.036551204
154	0xbcb65db0	-0.02226147
155	0x3d4b4636	0.049627505
156	0xbd40bfa6	-0.04705777
157	0x3d57187a	0.052513577
158	0x3d3da61c	0.046300992
159	0xbcdda460	-0.02705592
160	0xbb705c64	-0.0036676163
161	0xbc9c1f59	-0.019057916
162	0xbd19c5eb	-0.037542265
163	0x3c8457b5	0.016155103
164	0x3d6749f4	0.05646701
165	0x3cbacd16	0.02280287
166	0x3c7f0534	0.015565205
167	0xbce6baac	-0.028165184
168	0x3d351eff	0.044219013
169	0x3d2f1aaa	0.04275004
170	0xbd1089b8	-0.03528759
171	0x3d024167	0.031800654
172	0xbd261c1f	-0.040554162
173	0x3cedd435	0.029031852
174	0xbcf27e50	-0.029601246
175	0xbd0e2ef1	-0.034712736
176	0xbd1fdae5	-0.039027113
177	0x3cdc210e	0.02687123
178	0xba61f10b	-0.0008618987
179	0x3d586eca	0.05284003
180	0x3d1f1bf9	0.038845036
181	0xbd4e641d	-0.050388444
182	0xbd4b4fac	-0.049636528
183	0xbd12dede	-0.035857074
184	0x3d2f8a87	0.04285672
185	0xbd42bf7d	-0.0475459
186	0x3d286291	0.041109625
187	0xbd6b267c	-0.05740975
188	0x3cf2bf88	0.029632345
189	0xbcfbe261	-0.030747594
190	0xbd5b6c4b	-0.053570073
191	0x3d53ab6d	0.051677156
192	0xbc837acc	-0.016049765
193	0xbd25b212	-0.040453024
194	0x3bbcce06	0.0057618646
195	0x3c9966b0	0.018725723
196	0x3ba53f6d	0.0050429613
197	0x3ccdef80	0.025138617
198	0xbc53588e	-0.012899531
199	0xbafb647b	-0.0019179726
200	0xbbc14ae6	-0.005898821
201	0x3b719f68	0.0036868695
202	0x3d1a41ef	0.037660535
203	0x3d4ade75	0.049528558
204	0x3c9dc3c3	0.019258386
205	0xbd4903a9	-0.049075756
206	0x3c497d9d	0.012298015
207	0x3d4739b4	0.048639014
208	0x3d067d4b	0.032834332
209	0x3cdec0c9	0.027191537
210	0xbd3fadb8	-0.04679653
211	0x3c3f447c	0.011674043
212	0xbd384c41	-0.044994596
213	0xbd1deb38	-0.0385544
214	0xbc24ad83	-0.010051134
215	0x3d4a6e49	0.049421582
216	0xbd5c3f24	-0.053771153
217	0x3d362e85	0.04447796
218	0x3bc3b702	0.005972744
219	0xbb150a83	-0.0022741861
220	0x3c19c099	0.009384298
221	0x3cebb107	0.028770937
222	0xbd26a127	-0.04068103
223	0xbd1bc38f	-0.038028296
224	0xbd7ab877	-0.061211076
225	0xbc109602	-0.008824827
226	0x3d183ef3	0.037169408
227	0x3d460d83	0.04835273
228	0x3ce43285	0.02785612
229	0xbcf6a2d8	-0.030106947
230	0xbd490de9	-0.04908553
231	0xbd6403c1	-0.055667643
232	0xbd593627	-0.05303016
233	0xbd16b3ec	-0.03679268
234	0x3d0d46b8	0.03449127
235	0xbc1d1a9c	-0.009588864
236	0x3c230327	0.009949482
237	0xbd2b022e	-0.041750126
238	0xbc07ae2a	-0.00828127
239	0x3d30e9d3	0.043191742
240	0xbb8e8f16	-0.0043505533
241	0x3d5a23dd	0.05325686
242	0x3d538345	0.05163886
243	0xbd6b42a7	-0.05743661
244	0xbca89392	-0.02057818
245	0xbd045d62	-0.03231562
246	0xbd5c97c6	-0.05385568
247	0x3bf8fbca	0.007598375
248	0x3d17b152	0.03703434
249	0xbc2f0001	-0.010681153
250	0xbd041942	-0.03225065
251	0x3c5f6fa4	0.013637457
252	0xbd288ad7	-0.041148033
253	0x3c87ad82	0.016562227
254	0xbc0ef5cc	-0.008725595
255	0xbc8762ef	-0.016526667

layer2.bias f4 [10]
0	0x3b99cc2c	0.0046935286
1	0x3d2886ff	0.041144367
2	0x3d2924be	0.041294806
3	0xbd6b2403	-0.05740739
4	0x3cbf82ca	0.023377795
5	0xbd51e256	-0.05124124
6	0xbbb740e6	-0.0055924533
7	0xbd1916b9	-0.037375186
8	0xbd47e92e	-0.04880636
9	0x3d08595b	0.03328834

readout.weight f4 [1, 60]
0	0xbc9e3162	-0.019310657
1	0x3dac5c62	0.08416058
2	0x3c5f2ed2	0.013622003
3	0xbd94bf3c	-0.072630376
4	0xbdd1d5f9	-0.1024589
5	0x3e01f4d8	0.12691057
6	0x3d77925b	0.06044231
7	0x3d91d63e	0.071209416
8	0xbbe81ece	-0.0070837503
9	0x3d208155	0.03918584
10	0x3d49046c	0.049076483
11	0xbdadb02c	-0.08480868
12	0xbdf2eaba	-0.11861177
13	0x3c8ce6d4	0.017199911
14	0x3df50654	0.119640976
15	0x3d3b3bf4	0.045711473
16	0x3da55d94	0.08074489
17	0xbdcb14d0	-0.09916079
18	0xbd20d7d1	-0.03926832
19	0x3c6726a0	0.01410833
20	0x3c6352b9	0.013874703
21	0xbc671805	-0.014104848
22	0xbda6114b	-0.08108767
23	0xbe0161e8	-0.12635005
24	0x3d29bd07	0.041440036
25	0xbc96ad09	-0.018393056
26	0x3d301427	0.04298797
27	0x3c3acecd	0.011401844
28	0xbbf0da7e	-0.007350265
29	0x3ce733e2	0.028222982
30	0x3c877419	0.016534852
31	0x3de1822d	0.11011157
32	0xbdada2f9	-0.0847835
33	0x3ddd31a7	0.10800486
34	0xbd548621	-0.051885728
35	0xbcd92379	-0.026506172
36	0x3bb23196	0.00543804
37	0xbdef7f25	-0.11694173
38	0x3cb23ee9	0.021758514
39	0xbcfdd943	-0.030987388
40	0x3cb4b8b5	0.022060731
41	0x3d7e73b7	0.062122073
42	0xbdc88964	-0.0979183
43	0x3d73ed3a	0.05955241
44	0xbb3e5d06	-0.0029047146
45	0xbc810b74	-0.015752532
46	0xbdcb0ea9	-0.099149056
47	0x3c7a34be	0.015271364
48	0x3dc803ed	0.09766374
49	0xbd6f7ecc	-0.058470532
50	0xbd976210	-0.07391751
51	0xbdd3a74c	-0.10334644
52	0xbd0ad945	-0.03389861
53	0x3dfbd4a2	0.12296416
54	0xbd3c73a4	-0.04600872
55	0x3d1cfca9	0.038326893
56	0x3dd69d8e	0.1047927
57	0x3d0f7d02	0.035031326
58	0x3d9185d1	0.071056016
59	0xbdf1ec2d	-0.11812625
