net.pth (torch, 203351 bytes, 5 tensors)

layer1.weight f4 [64, 720]
00000000: b883 a23c e484 233d f8b1 303d 6f86 8ebc
00000010: 3c7c 3dbb 51a6 f33c 47c1 253d f2ce 38bc
00000020: 4ba9 4b3c 9d41 fc3c 1ee9 953c 3c08 613c
00000030: 3767 27bd c774 6ebc 42c9 a33c 0f73 f4bc
00000040: 8283 da3c 5a52 943c 6af3 b63b 9680 29bc
00000050: 72e7 cb3c 6fba 123a d812 8f3c 6599 f9bc
00000060: 37c0 c33c 2afd e03c 9c4d 953c 910f 9dbb
00000070: a567 cfbc 2627 d63c 4731 93ba f52c 243d
00000080: 13d6 b83c 51fd 93bc 6380 37bd bae3 293b
00000090: 1373 9e3b 9b46 c93c 84f7 573c da85 f6bc
000000a0: 80b3 cfbb b48a ccba c19b fdbb 9845 d43c
000000b0: cfb0 09bd 3a6e 023d 73e9 a53c b77c 18bc
000000c0: 652a 0e3c 515c 4ebc 7478 1e3d 3e89 d7bb
000000d0: afc5 ba3c a731 ccbb d5ee 563b 16ef 24bd
000000e0: 1c38 fc3b 74aa 05bd 8d35 233c 8da5 f63c
000000f0: 9ea0 00bd 9591 1dbc 66f7 0a3c de5e 19bc
00000100: b225 01bc d722 9c3c 53f1 213c 82e6 003d
00000110: 0be9 043d 0205 a13c 40e8 2d3c 324b db3b
00000120: 8f9d 1cbd c163 1cbd 8161 5cbc d7b6 be3c
00000130: 73aa 60bc d019 88bb 8fd8 09bc cb45 ceba
00000140: 5d0b f6bc aab2 af3c 4238 b53c 9fe2 933b
00000150: cf11 debc 6997 c43c 97ad 0dbc afd8 09bc
00000160: 244c 503c 3305 09bc 5d13 18bd 4407 adbb
00000170: babe 9abc caa5 afbc 0b9f 0d3d 9c7b a2bb
00000180: 1243 103d 8211 5c3c 8cfa 7b3c 1f09 93bc
00000190: d74b 39bc 759a 8dbb 036e a03c 1d4f 18bc
000001a0: 746f fdbb ac19 34bd d243 6d3b c22c c33b
000001b0: 4ba2 c73c 4354 85bc 3ac0 113d b797 583c
000001c0: c367 a03b 2ee3 413c 290f 65bc 636a 873a
000001d0: 60cd a3bb 0578 373c b669 7b3c 48c4 d33c
000001e0: b51b 0abc 6b42 ddbc c6db 423b 4af6 32bc
000001f0: b8f8 13bd 8777 1fbd a9e4 83bc 6cac acbb
00000200: 04ec 723b a740 c73c 52b7 0abc 2a4f e13c
00000210: abee f1bc 6c95 303c 924f 8abc 0993 dc3b
00000220: eaa1 153d a6d7 e9bc b529 103d 6fc7 ebbc
00000230: 87a8 fb3c e7a0 cebc 2064 c0bc d5a9 923c
00000240: 10be e03b 21f2 a0bc 74ee afbb ed0a 12bb
00000250: 27e9 0d3d 2eb9 84bb f9c8 073d 28cc b9bc
00000260: d99d d93c d2a6 223d 387c fbbc 8b60 283d
00000270: f673 96bb 45a2 3cbc 68c6 eabc 7a8a 9abc
00000280: 6045 1ebd 40a7 d13c 3568 30bb d36c 62bc
00000290: c5a6 f43c 5113 263b ebfc e3bc 4328 5b3a
000002a0: 8b46 8e3c 82f7 aabc af44 623c dc7f f8bb
000002b0: b98c c73c 15a1 173c 30cc 1a3d f326 713c
000002c0: a35c 803b d3a2 fbbc 4477 0cbc d6a3 a7bc
000002d0: 3eeb a3bc bb5a 733c ed5d d13c fd48 7b3c
000002e0: 04df 413c 4f4c 0c3d 0c6a 163c 8f4e 003d
000002f0: 728f b73c ba31 223d fdfa e3bc b9ff 8a3c
00000300: 8105 95bc 0e99 acbc 0334 bdbc cd2c 063d
00000310: 2730 e8bc 4f23 14bd 0c2a 2fbc 2be3 d7bc
00000320: e505 6f3c 9530 303d 6da5 ec3c f75a 0dbb
00000330: e7d3 7f3c 05bb 343b dc00 873c 90c9 313c
00000340: e435 aebb 3d12 6fbc 6f24 f53c a39d 6f3c
00000350: 7119 1dbd 8c95 2d3b f850 febc 3815 2f3c
00000360: e644 313c 9f79 81bc 414a 2cbc 208c 363d
00000370: 9eea e1bb d840 353d 2ad0 b2bc 9ab9 a33c
00000380: 5b61 0e3d 9cac cf3c 2eb0 343c ccd4 b9bc
00000390: e13b c7bb 6561 1cbb 6ccf 83bc e2b7 c93c
000003a0: fbcb d4bc f236 b239 6a47 bc3b ce03 e23a
000003b0: bf20 a0bc 39af 483c edd0 d1bc 1e54 33bc
000003c0: a4df 0cbc 79c6 053d af05 1fbd ea43 cf3b
000003d0: e237 d13c 1732 e43c c2d6 cc3c cc71 84bb
000003e0: 4eb5 d93c 1718 8fbc c42e aa3c ac9a 163c
000003f0: 23fc 84bb d9ed abbb 0069 7b3b b389 e2bc
0.019838199 0.039921656 0.043138474 -0.017398087 -0.002891316 0.029742392 0.040467527 -0.011279808
0.012430499 0.030793006 0.018299635 0.013734873 -0.040869918 -0.014554209 0.019993428 -0.02984002
0.026674036 0.018105675 0.0055832164 -0.010345599 0.024890635 0.0005597239 0.01746504 -0.030468652
0.023895366 0.027464468 0.018225484 -0.0047931154 -0.025317976 0.026141714 -0.0011229896 0.040081937
0.022563016 -0.018065127 -0.044800173 0.002592309 0.0048354953 0.0245698 0.013181571 -0.030093122
-0.0063385367 -0.0015605302 -0.0077395146 0.025912091 -0.033615883 0.0318434 0.020252919 -0.009307078
0.0086771 -0.012595252 0.03868909 -0.00657764 0.022799341 -0.006231505 0.0032796164 -0.040267073
0.0076971184 -0.03263326 0.009961498 0.030108238 -0.031403176 -0.009617229 0.008481836 -0.009360997
-0.007882522 0.019059582 0.009884196 0.03146983 0.03244881 0.019655708 0.010614455 0.0066923136
-0.038236197 -0.03818107 -0.013450981 0.023280544 -0.013712513 -0.0041534677 -0.008413448 -0.0015737353
-0.030034715 0.021447498 0.022121552 0.0045130993 -0.027108101 0.02399798 -0.008647344 -0.008413478
0.012713466 -0.008363056 -0.03712784 -0.005280407 -0.018889774 -0.02144136 0.034575503 -0.004958583
0.035220213 0.013431909 0.015379559 -0.017948685 -0.0113095855 -0.004321391 0.019583708 -0.009296206
-0.0077342335 -0.043969795 0.0036203754 0.0059562633 0.02436938 -0.01627553 0.035583712 0.013219765
0.004895182 0.011833949 -0.013980665 0.0010331388 -0.004998848 0.0111980485 0.015345028 0.02585043
-0.008429457 -0.02700921 0.0029733046 -0.010922978 -0.03612587 -0.03893235 -0.016100245 -0.0052695777
0.0037066946 0.02432282 -0.0084665585 0.027503569 -0.029532751 0.010777812 -0.016883645 0.006731395
0.036531366 -0.028545212 0.035196025 -0.02878162 0.030720009 -0.025223209 -0.023485243 0.017903248
0.0068585947 -0.019646706 -0.005369002 -0.0022284344 0.03464618 -0.0040503955 0.033150647 -0.022680357
0.026564525 0.039709873 -0.03069888 0.041107696 -0.0045914603 -0.011513297 -0.02865906 -0.018864859
-0.03864038 0.025592446 -0.002691758 -0.013819891 0.029864678 0.0025341103 -0.027830562 0.00083601865
0.017367622 -0.020869974 0.013810321 -0.0075836014 0.024359094 0.009254714 0.037792385 0.014718759
0.003917293 -0.03071729 -0.008573357 -0.020463865 -0.020009633 0.014853175 0.025557483 0.015337226
0.011832956 0.03425246 0.009180557 0.03132492 0.022407267 0.039598204 -0.027829641 0.016967641
-0.018191101 -0.021069076 -0.02309609 0.03275757 -0.028343273 -0.036166485 -0.010691177 -0.02635344
0.014588808 0.04301508 0.028887475 -0.0021569112 0.015614486 0.0027577293 0.016479902 0.010851279
-0.005316483 -0.014591751 0.0299246 0.014624986 -0.03835434 0.0026486842 -0.031044468 0.010686211
0.010819649 -0.015805064 -0.01051575 0.044567227 -0.0068944236 0.044251293 -0.021827776 0.019985963
0.034760814 0.025350861 0.011028333 -0.022684477 -0.006080136 -0.0023861763 -0.016090117 0.024623815
-0.025976172 0.00033991743 0.005745818 0.0017243566 -0.019546865 0.012248808 -0.025612319 -0.010945348
-0.008598242 0.03265998 -0.03882378 0.0063252347 0.025539342 0.027855916 0.025004748 -0.004041886
0.02657571 -0.017467542 0.020774253 0.00919215 -0.0040583774 -0.0052468595 0.0038362145 -0.02765355

layer1.bias f4 [64]
00000000: 39de 9b3c 94c5 90bc c9f9 d13c e972 b6bc
00000010: 17af 803c f7e8 b4bc 83a1 073d 57b8 433c
00000020: 91fb dcbc 6ad7 cf3c 601a 84bc 7d63 0ebd
00000030: 86a8 1a3c b4a0 bfbc 3c3b 06bd dc5e 1e3d
00000040: 44ae 243c d408 f43c 9406 8c3c 59fe c13c
00000050: 40c2 7a3a 4157 0ebd 8f64 91bc 1ffd b1bb
00000060: 08a7 97bb 8c88 abbc 44d8 35bc 1561 0bbd
00000070: 50b0 13bc 26e6 243a a7a3 8d3c 5cd1 5f3c
00000080: 7516 6c3c 5eaa cc3c b0da a9bc 40c1 b6bc
00000090: 6056 e1bc 1db3 163d 90ac abbc e724 b3bc
000000a0: 4b6f 09bd baf1 96bc 9e8a c53c c084 5c3b
000000b0: ae73 bdbb 6d1f 073d 20d5 ab3a 6b0c 72bb
000000c0: 0baf f7bc 25b8 10bd 5c65 3f3c 9e4e d239
000000d0: 66b1 dc3c d6cd a03c 128e 0dbc 7ef9 10bc
000000e0: e3e3 69bc 8166 073d 1109 db3c 9bbe f3bc
000000f0: 5d26 65bc 1e2b e4bc f0af b4bc 3b1c 0c3d
0.019026862 -0.017672338 0.025631802 -0.02227159 0.01570849 -0.022083743 0.033113014 0.0119458055
-0.026975425 0.025371272 -0.016125858 -0.03476285 0.009439593 -0.023392059 -0.032771334 0.038664684
0.010051314 0.029789366 0.01709298 0.023680853 0.00095656887 -0.03475118 -0.017748145 -0.0054317857
-0.004628066 -0.020939134 -0.011098925 -0.03402813 -0.009014204 0.00062903983 0.01728995 0.013660755
0.014409651 0.024983581 -0.020734161 -0.022308946 -0.027507007 0.03679191 -0.020956308 -0.021868182
-0.033553403 -0.018425811 0.02411395 0.003364846 -0.0057816124 0.032988954 0.0013109781 -0.0036933671
-0.030234834 -0.035331864 0.011681881 0.00040112896 0.026940059 0.0196294 -0.008639829 -0.008848546
-0.014275524 0.03305674 0.026737722 -0.029753974 -0.013986197 -0.027852591 -0.02205655 0.03420661

layer2.weight f4 [64, 64]
00000000: 1201 643d c41c 22bd 2cfd 47bd e735 dcbd
00000010: 8cab a4bd 1dcd c53c 361e 7fbd 0a2e bdbd
00000020: 601e bd3d 6075 50bd 8484 51bd de4d eabd
00000030: e725 48bd 5157 48bc 2854 04bd 3f31 e63b
00000040: deb9 ccbd 3c96 dd3b 0e2e 1d3c 0f56 d2bd
00000050: a8f3 f43d 64db 3a3d 3fd4 913d fec2 f53c
00000060: 600e 9b3b 2036 e5bc 6aeb f43d 2694 f73d
00000070: 9e99 ac3d a090 ac3d abe1 563d c177 913d
00000080: a5f6 f83c a60f 0c3d f7ac 823d 9cc0 4cbd
00000090: 3d22 8bbd 9c4b 4f3d 748e e23c 582f 68bd
000000a0: a478 eabd 4cba f03d 2a87 5bbd 0adf 883d
000000b0: d7ec c2bd a63b 98bd c0ec c63d aeec 533c
000000c0: ba83 1bbd 144f 3a3d 704d d1bd 6867 a03c
000000d0: c8c5 8e3d d39e 86b9 c87e bd3d f4a4 893d
000000e0: 4359 a33d 49c2 143d ae2c 573d b0a9 b9bd
000000f0: cf2f 313d 3891 5abd 1e1f bcbd a3c1 95ba
00000100: 3b93 fc3d 00dc 8b3a de37 883b 07f2 e4bc
00000110: 775f c83d 0c0d e1bd ce35 68bd 9c42 a1bd
00000120: e54b 11bd 542c 21bd ab4e 5ebd 18b8 e03d
00000130: 2ee6 dfbd 02d2 a23d 3053 853d 6d48 05bd
00000140: 8071 723d 2b28 88bd 7582 e9bd aa77 7ebd
00000150: 0413 233d 80a0 a63b 7cd0 d73a 8555 1abc
00000160: 2241 e53d 8460 863d e9cd 1e3d f2eb f3bd
00000170: 68e8 d0bd e9d7 b3bd aa58 e13d 70ca 0e3d
00000180: dd10 6a3d 40fc 0a3d 38bf a23d 3a41 cb3d
00000190: 0f3e eb3d 2424 703d d5cb b1bd 7042 013e
000001a0: 0e35 f2bd 42dc 99bd f3f6 44bd 642f a03d
000001b0: caf3 9b3d f8d0 d7bd 8817 0abd 6c71 06bd
000001c0: 07f0 73bd 0840 e3bd 08f2 8ebd 7aec a53d
000001d0: 4875 ae3d 6039 ef3d 907a 58bd c0c2 b63d
000001e0: a090 423d 5149 5b3c 6d10 12bb 2134 06bd
000001f0: 789f e33d 560a 8dbd efef d83d 3e8d a53d
00000200: d416 eebd b035 b33d db69 cabd 6fe5 81bc
00000210: c70c 8bbd 6427 38bc a1e5 763d 145a e13d
00000220: 1842 013e 96e8 d6bd bf64 703c fe74 a8bd
00000230: 0c03 823d bc84 19bd 9cc8 72bd bdd4 ac3d
00000240: 58e1 64bd 5568 983d 422f 5fbd 1096 bf3d
00000250: 008d 50bc da88 b5bd cfdb b03c 3bc0 053d
00000260: c457 0fbd 6e3f d0bd c812 843d aa6f ce3d
00000270: 14bd 9f3d c8cd b5bd 6eee d53d cb98 d83b
00000280: e143 d13c da8b 3f3d 986a 883d 8076 59bd
00000290: efbb 313d c26c 87bd 82e8 8fbd 4c2a 8b3d
000002a0: 74ff 01bd 2cc3 c4bd 0f04 c4bd 8ce0 223d
000002b0: e5ef 933d 804f 3e3b 960a 9b3d 5c7b e33d
000002c0: 913c e2bd 90ce 7cbc 5215 debb 4147 633d
000002d0: 6280 efbd 1e51 23bb 5807 32bd 6088 d1bb
000002e0: 4bb1 96bd 3ff3 783d bd39 bb3d 9e05 d83c
000002f0: 32e6 dbbc e0b0 70bd b24e 013e f408 0abe
00000300: f0e2 ca3d cc7e 053d 38f3 97ba 9559 2d3b
00000310: b1cb cbbd 6943 9dbd f2ef c13d 7c21 d8bd
00000320: c8fa e9bd 0e6b b33d aa66 ba3d 058f c63d
00000330: 6928 a33d 9a52 7d3d 20d6 e23d 386a 08bd
00000340: 70e6 5f3d bd72 02bd b3e9 9bbd 10bc 82bd
00000350: fcc2 52bd 944f 9b3d 26fe 3fbc 4cd4 ca3c
00000360: 5ca5 c0bd ec1c 2abd a198 16bd ec5c 743d
00000370: 9860 563d a532 fdbd 8e56 19ba 476b f1bd
00000380: a3f7 81bc b2e5 20bd 1342 dc3d 9eaa 9bbd
00000390: c89f 87bd 3c47 85bd f659 81bd 4638 4bbd
000003a0: 125f dfbd 829a e8bd d9fe 9abd 30fa c7bc
000003b0: 9a50 f33d 98f2 f13d 0835 56bd c1fa a13d
000003c0: f606 793d 36cb f13d 98f4 ef3d caf4 4cbd
000003d0: da00 ccbd 3e1e e7bd 6cae b63d bac3 ac3d
000003e0: c1f0 d9bd 9ead 1a3d 692a d23d 133a ad3c
000003f0: 2d64 c83d 9031 533d 7621 9bbc 4fa6 72bd
0.055665083 -0.039578214 -0.048825428 -0.107524686 -0.080405325 0.024145657 -0.06228467 -0.09237297
0.09234309 -0.050893188 -0.051151767 -0.11440633 -0.04886427 -0.012227849 -0.03230682 0.0070249136
-0.09996389 0.006762294 0.0095935 -0.102703206 0.11960536 0.045619383 0.07120561 0.030000206
0.0047319382 -0.02797991 0.11958964 0.12088804 0.08427738 0.084260225 0.052461307 0.07102919
0.030391047 0.03419461 0.06380647 -0.049988374 -0.0679364 0.050609216 0.027655818 -0.056685776
-0.114487916 0.11754283 -0.0535957 0.06683166 -0.0951783 -0.07433252 0.09713125 0.012934847
-0.03796742 0.04548557 -0.10219848 0.019580558 0.069713175 -0.00025676805 0.09252697 0.067209154
0.0797601 0.036318097 0.052532844 -0.090655684 0.043258484 -0.053361148 -0.09185623 -0.0011425506
0.123327695 0.0010670424 0.0041570505 -0.027947439 0.097838335 -0.109888166 -0.056691937 -0.07874033
-0.03547277 -0.039348915 -0.054274242 0.10972613 -0.10932575 0.07950212 0.065100074 -0.032539774
0.059190273 -0.066482864 -0.11401836 -0.06212584 0.039813057 0.005085051 0.0016465331 -0.0094198035
0.11194064 0.06561378 0.03877059 -0.11910237 -0.10200578 -0.08781416 0.110032395 0.03486103
0.05714499 0.03393197 0.07946628 0.0992455 0.11486446 0.058628216 -0.08681456 0.12623
-0.11826526 -0.07512714 -0.04808707 0.07821539 0.076148584 -0.105379045 -0.033713847 -0.03282301
-0.05955508 -0.11096197 -0.069797575 0.08101745 0.085184634 0.11680865 -0.05285126 0.08923864
0.047501206 0.013384179 -0.0022287623 -0.032764558 0.111144006 -0.06886737 0.10592639 0.080835804
-0.11625448 0.087504745 -0.098834716 -0.015856473 -0.067895465 -0.01123986 0.060277585 0.11003509
0.12622869 -0.10493581 0.014672457 -0.082254395 0.063482374 -0.0374801 -0.059273347 0.08439014
-0.055878967 0.07441775 -0.054488428 0.09354794 -0.0127289295 -0.08863993 0.021589188 0.03265403
-0.03499581 -0.10168348 0.06448895 0.10079892 0.07799736 -0.0887714 0.104458675 0.006610011
0.025545062 0.046764232 0.06660956 -0.053091526 0.043392118 -0.06612541 -0.07026769 0.06795177
-0.03173776 -0.096075386 -0.095710866 0.039764926 0.072234906 0.0029039085 0.075703785 0.11107513
-0.110467084 -0.015430108 -0.006777444 0.055487875 -0.11694409 -0.0024920176 -0.043464035 -0.006394431
-0.07358035 0.060778853 0.09141872 0.026369866 -0.026843164 -0.05876243 0.12627676 -0.13479978
0.09906566 0.032591626 -0.001159287 0.00264511 -0.099509604 -0.07678873 0.09469594 -0.10553262
-0.11424786 0.087606534 0.09101613 0.096952476 0.07966692 0.061846353 0.11075997 -0.033304423
0.05466312 -0.031847704 -0.07612934 -0.06383526 -0.051455483 0.07583538 -0.011718309 0.024759434
-0.0940654 -0.04153149 -0.036766652 0.05965893 0.052338213 -0.12363175 -0.00058493845 -0.1178804
-0.015865153 -0.039281555 0.1075479 -0.07600902 -0.06622273 -0.065077275 -0.06315987 -0.049614213
-0.10906805 -0.11357595 -0.075681396 -0.02441129 0.11880608 0.11813849 -0.05229667 0.07909156
0.060797654 0.118063375 0.117165744 -0.050038137 -0.099611 -0.11285065 0.08919987 0.084357694
-0.10641623 0.03776323 0.10261995 0.021145856 0.09784732 0.05156094 -0.018936854 -0.059240635

layer2.bias f4 [64]
00000000: dc4b b23d b76f afbd 946b 79bd 49bd 20bd
00000010: bf44 14bc 5cf3 353d 08ee a2bd 7ec2 ac3d
00000020: b92c 4cbd c844 7abd a0a7 8e3b 684d dd3d
00000030: caf8 86bd 28e1 83bd 80e6 56bc dc3b 543d
00000040: 44bc ca3d 4527 7b3c e45c 353d 86d4 d1bd
00000050: 5079 ec3c c82a 903d ea46 af3d e012 0e3d
00000060: c035 023b 54b0 aabd 7076 813d fcbb 4ebd
00000070: a095 f3bd 468b b13d 2469 adbd e82f ca3c
00000080: 8090 91bd 80d3 efbb 9643 c43d 0451 bd3d
00000090: 9cba 0d3d f806 6fbd 48ca cd3c aa42 f63d
000000a0: 7296 e5bd 7892 913c 2629 cc3d ace1 efbd
000000b0: b42a 4dbd f55b e53c 19d3 e53d ac9a eebd
000000c0: 6c53 fb3d bbf7 d13d 84bd 4fbd 5a4b be3d
000000d0: 2234 f03d 5a03 dc3c 105e 38bc a43f 2fbd
000000e0: 1093 3abc e8d1 e33c de8d e43c 3b56 b93d
000000f0: a06b b63d 5618 7dbc 7000 bebd e883 a2bd
0.08705875 -0.0856623 -0.06089361 -0.039243016 -0.0090495935 0.04442154 -0.07955557 0.08435534
-0.04984734 -0.06110075 0.0043534786 0.1080578 -0.065904215 -0.064394295 -0.013116479 0.0518149
0.0989919 0.015329187 0.04427804 -0.10245614 0.02886644 0.0703941 0.08558448 0.03468597
0.0019868463 -0.08334413 0.06321418 -0.050472245 -0.11893773 0.086691424 -0.084673196 0.024681047
-0.07107639 -0.007318914 0.095832035 0.09243968 0.034601793 -0.058356255 0.02512087 0.12024434
-0.11210336 0.017770037 0.09968786 -0.11712965 -0.050089553 0.02799795 0.11221904 -0.11650595
0.12271771 0.10252329 -0.050717846 0.09291716 0.117286935 0.026857067 -0.011252895 -0.0427853
-0.0113876015 0.027810052 0.027899679 0.0904965 0.089072466 -0.015447697 -0.09277427 -0.07935315

readout.weight f4 [1, 64]
00000000: f1f8 5dbc 1646 c1bd 3311 d43c bb45 b6bd
00000010: 3e96 093d c039 5fbd 38e5 a23d 4fe1 aebd
00000020: 41db 59bd e30b a7bc 0e66 87bd 9f70 b03c
00000030: 538e b4bd 8ee0 4fbd 4a95 9bbd c40b a5bd
00000040: 0ab6 c93d 4741 883d dc65 983d 670c eb3d
00000050: 2065 ea3c 515d 4c3d a14c cabc 153c 573e
00000060: 96ea dcbd 3c7e 813d f7a9 83bd d08c 573d
00000070: e427 3bbd 008d 72bd b609 863d 9c76 8bbd
00000080: 32d8 f33d d0e1 9cbd a0c5 e5bb ef05 b6bd
00000090: 40b3 693c bc35 e9bd 4945 00bd ba8c e7bc
000000a0: d8e1 e0bc 3ca0 8ebd d452 b4bd 7a73 983d
000000b0: b0e7 0ebd 1faa 92bc 04b4 8b3c f096 5ebd
000000c0: 62b7 3c3d faee aebd 7ef4 a13d 0801 f23d
000000d0: f651 003e 9b50 a1bd 8a05 bb3d 40b5 a93d
000000e0: 3dad 84bd 3193 4bbd 7656 f13d 5e6a 9e3d
000000f0: 96a8 8abd c30b a33d 2614 aa3d 8c21 3a3d
-0.013548122 -0.09437196 0.025887107 -0.08900019 0.033590548 -0.054498434 0.07953876 -0.08539068
-0.053187612 -0.02039141 -0.06611262 0.021538077 -0.08816209 -0.05075126 -0.07596834 -0.08058885
0.09849174 0.06653076 0.07441303 0.11476975 0.028612673 0.04989368 -0.024694743 0.21019013
-0.10786931 0.063229054 -0.064289026 0.052624524 -0.04569234 -0.0592165 0.06544821 -0.06809732
0.1190647 -0.07660258 -0.007012084 -0.088878505 0.014263928 -0.11387202 -0.031316075 -0.028265346
-0.02745144 -0.06964156 -0.08804861 0.074439004 -0.034888923 -0.017903386 0.017053612 -0.054343164
0.046073325 -0.08541675 0.07907961 0.11816603 0.12531266 -0.078767024 0.09131916 0.08286524
-0.06478355 -0.04970092 0.11784069 0.07735132 -0.067704365 0.07961228 0.08304624 0.04544215
