net.pth (torch, 9687 bytes, 5 tensors)

layer1.weight f4 [6, 1, 5, 5]
00000000: c595 28be 7078 44be b138 913d 43a3 95bc
00000010: 2cf8 e53c ff25 bb3d f572 073e b56d 0b3e
00000020: 2d2e e0bd 407c 39be c511 a43d 654b 163e
00000030: 0f2b 473e 10d5 de3d a6c9 a23c 2f24 d9bd
00000040: 1d4a 2e3e 6d26 143e be0b 8f3c 4ff2 273e
00000050: 53bf cdbd f9ab cf3d d82c ec3d 5eb9 f9bb
00000060: f88e eabd 330a 07be 5dfe 4ebe f19d 4fbe
00000070: 85d8 e0bd 1163 f73d 9169 87bd 1e7e 05be
00000080: 4b78 49be 3520 8f3c 465f f5bc c869 13bb
00000090: 6130 eb3c 4bf7 00be 665d e23d 5609 e33d
000000a0: 893a 4e3e 4593 36be 69cb 37bd 5f09 073e
000000b0: 0445 263e 252c 373d 3fa0 1bbe 0a52 0ebe
000000c0: db33 433e fc5b e2bd 1c5a b73c e1b1 18be
000000d0: d57d 9b3d beb2 423e 9623 16be 45cd 093d
000000e0: bb38 c53d 1260 d63c df3c 313d bfcf 9c3c
000000f0: e2da 2c3e d51e 313e d994 dabc ea10 8a3d
00000100: 6b8d debd c3a1 323e 539c 5dbd ae30 963d
00000110: 05b9 3a3e 8b7b 72bd a136 3f3e b490 3a3e
00000120: 633b 1b3d 2cb4 c4bd c8ee 6e3d 6aef f23d
00000130: 858c a0bd bc43 e9bd e7d0 1abd ff71 463c
00000140: ffb0 4ebd 80d4 5dbd 7e62 16be b7c5 6a3d
00000150: d6d2 de3c 7dcc abbd 2811 9cbd a9a2 79bd
00000160: 4a89 e83d 20f7 91bd 88fc 093e 2cc3 2e3e
00000170: 9454 cbbd 1341 a7bd aeeb 90bd f9b6 d6bc
00000180: 63fd 5d3c 564e f8bd a132 fcbd 22d5 4e3e
00000190: 4e99 a63c aca4 0c3e ee45 0fbc 53ba bd3d
000001a0: 8acd 093e 62a4 05be eb6f 4c3e cce9 3ebd
000001b0: 1392 1dbd a73f f83d b594 19be f275 883d
000001c0: 553c 35be dc8c fbbd b043 633d a053 183c
000001d0: 741b b2bc ed82 12be 6571 a2bc 10ff ae3d
000001e0: 3c62 4c3e 0c57 c6bd b155 adbd 249d 05be
000001f0: f9fb 6b3d 7ea9 313e ee57 a6bd 6383 d4bd
00000200: 4b7e c33d 5fde 4e3e 0645 c0bd 57ad 103e
00000210: 1eea 0b3e 6eaa a63d d01a dcbd cba0 503d
00000220: b36a 473d 67fe 013e 410c 63bd 6769 35be
00000230: 78e0 e8bb a827 a4bc a46f a33d 4ac3 cfbc
00000240: af0c 8dbc 2bbe 32be 96ed 46be 787c 7c3d
00000250: 8da3 0cbe e935 ebbd
-0.16463383 -0.19186568 0.07090891 -0.018266326 0.02807244 0.091381066 0.13227446 0.13616069
-0.10946307 -0.18113804 0.08011202 0.14677198 0.1945002 0.10880482 0.019871544 -0.106026046
0.1702046 0.14467783 0.017461654 0.16401027 -0.10046258 0.10140223 0.11531991 -0.0076209744
-0.114530504 -0.13187484 -0.2021422 -0.20275094 -0.10978798 0.12079442 -0.06611932 -0.13036391
-0.19674794 0.017471412 -0.029952656 -0.002249347 0.028709592 -0.12594335 0.110529706 0.11085765
0.20139517 -0.17829616 -0.04487172 0.13187169 0.16237265 0.044719834 -0.15197848 -0.13898483
0.1906275 -0.11052701 0.022381835 -0.14911605 0.0759236 0.19013497 -0.14662012 0.033643026
0.09629961 0.026168857 0.04327094 0.01914203 0.16880372 0.17296918 -0.026682304 0.06741507
-0.10866817 0.1744452 -0.05410416 0.07333504 0.18234642 -0.05919985 0.18673183 0.18219262
0.037898432 -0.096046776 0.05833319 0.11862071 -0.07839302 -0.113898724 -0.03779688 0.01211214
-0.050461765 -0.054157734 -0.1468601 0.05731746 0.027200144 -0.083886124 -0.0762046 -0.06094614
0.11354311 -0.071272135 0.1347524 0.1706664 -0.09928241 -0.08166709 -0.07076202 -0.026210295
0.013549182 -0.121243164 -0.12314344 0.20198491 0.020336773 0.13734692 -0.0087447 0.09264054
0.13457313 -0.13050988 0.19964568 -0.046609685 -0.038469385 0.12121516 -0.14998133 0.06663121
-0.17698796 -0.12282726 0.055484474 0.0092972815 -0.021741606 -0.14307757 -0.019829461 0.08544743
0.19959348 -0.096845716 -0.0846361 -0.13048226 0.057613347 0.17349812 -0.0812224 -0.103766225
0.09545573 0.20202015 -0.09388165 0.14128624 0.13663527 0.08137976 -0.107473016 0.050934594
0.04868574 0.12694703 -0.055431608 -0.17715989 -0.007106837 -0.02003844 0.07980278 -0.025361676
-0.017217962 -0.17455356 -0.1942657 0.06164214 -0.13734265 -0.11484892

layer1.bias f4 [6]
00000000: 2a77 893d 5a79 493e 2508 a2bd c6f6 1c3e
00000010: 35f1 413e 52e8 9abc
0.06712182 0.19675198 -0.0791171 0.15328512 0.1893967 -0.018909607

layer2.weight f4 [10, 6, 5, 5]
00000000: bfa2 88bd a8d5 243b c686 98bd afc6 983d
00000010: 5b06 6fbd b8f2 06bd ad2d 31bc 7ef2 9abd
00000020: 2b5f 303d ee87 963d a75a 43bd 9319 91bc
00000030: 896d a5bd 9587 1cbd d917 73bd 7cd2 633c
00000040: 39a0 86bd 77c2 c2bc 7ec1 6b3d b5df 85bb
00000050: b05b 143d 906a 183d dd96 b03d 6028 dcbb
00000060: abea 8b3c e5b1 953d 1f17 8e3c 2edc 033c
00000070: 4bf4 6f3d 3c3f d73c 0be3 94bd dfc2 6ebd
00000080: 39e9 933d 5dc3 ffbc e005 44bd 4018 373d
00000090: 216e aebd c7d8 153d 39ca 8f3d 800d 14bd
000000a0: 17c7 493b a401 a5bc 57e2 f0bc 784e fc3a
000000b0: b2b1 87bd 7909 48bb a79a c6bb 69d9 c6bc
000000c0: 7dcd 6dbc d996 c53c 807c 8dbd 815d db3c
000000d0: 743f a23c 8aa8 42bd 4ed8 0e3a 3d02 a2bd
000000e0: 6bb3 c83c 8f5c f2bc 79b5 003d 2d08 143d
000000f0: 37ca 823d 61ba 48bc a0c6 8bbd 063f 733c
00000100: 4ead 143d 30ce 633d 3c6b b93c a5fc 52bd
00000110: 3ecd 1dbd 79a7 5fbc c705 a1bd 84e5 e23a
00000120: 2942 ffbc c6ef 0ebd e0db dbbc d611 25bd
00000130: 0f93 a4bc b24d 6ebd 92f9 8abd 49b8 803d
00000140: 540f 563d ea0c ef3b a267 00bc 56fe 2abd
00000150: b354 3bbd 3868 01bd 635b 8abb 656c 93bc
00000160: de19 15bd 8b8d 4bbd 0824 a7bd 09a9 993d
00000170: 577e 83bd 45ec 7fbc 1461 2f3c c17f 3e3d
00000180: 6ec8 00bc c1c0 acbd 652e 7c3d 7d6c 843d
00000190: cdb3 6a3d 5c7d f938 101b 41bd 71ff 9f3d
000001a0: 9bd6 8ebd 9d24 943d 6b42 993b 2f2b 83bd
000001b0: ffbe 24bd f368 dd3c 5e24 573d 18e4 e83c
000001c0: 6c6e 9a3d 0c8d c03c 19f5 9b3d 09d3 b1bc
000001d0: 57bc f73c 459b 663d dd19 963d f397 49bc
000001e0: 1458 d6bc 4518 473c bc5e adbc 72a4 e4bc
000001f0: a4ca adbc ebbc a9bd ddc8 24bd 69c3 343d
00000200: 9e40 903d c8de 15bd 7957 88bd 618d 8cbd
00000210: 50a1 1e3d cf1f 9cbd 273a 703d 6f21 893d
00000220: 735f ccbc 6bdf 6ebb af93 80bd 4ab2 64bd
00000230: 2c71 153d 4b1a b1bb 4a9f 33bd da82 47bd
00000240: 456f 30bd fbd8 bdbc 69b3 f83c 2a6a 3fbd
00000250: 8363 4abd 508b 013d 0e7e 85bd f262 8a3d
00000260: 5308 353d 17c9 dbbc 9983 99bb f610 c8b9
00000270: 79df e2bc dd9a ac3c 0e0c 853d 8929 69bd
00000280: f4d8 b7bb 1ec5 ffbc 6677 083d d6ff d6bc
00000290: 31d4 acbb bf69 423d 1ea1 10bd 3e0c 19bd
000002a0: d31b 9c3c d0e2 81bd 1010 1b3d 3ce3 853d
000002b0: 159c 32bb e3d0 8f3d f6d2 7bbc 0543 523d
000002c0: 7fd2 37bd 4260 323d 9d75 e1bc 70b7 703d
000002d0: dc40 10bd 8262 fabc 98f4 9f3d ccb2 afbc
000002e0: c29d 39bd bfde 89bd e1b6 ed3c d92c 8a3d
000002f0: deab 2f3c 4e92 983d 2956 e63c e867 383d
00000300: 167b 703d 205b a63d 4b2b 0ebc 8382 24bd
00000310: 2d8f a2bc c9e1 03bd 7e17 d03c c74b 4bbd
00000320: 5046 123c 2d29 6b3d cdc1 a13a 2b5c a83c
00000330: bb7b b3bc 5ad8 4abd dc85 79bd 90a8 063c
00000340: 828c 103c 4f4a 9b3a e277 73bd 4127 b23d
00000350: 5a07 33bd 22c9 8cbd 8b95 523d d0b4 5abb
00000360: 89cd 48bd b058 a1bd 7c18 b0ba 2542 d9bc
00000370: fb0c 3d3d 1b21 82bd bdd5 493c 23cc 863b
00000380: c4f8 3fbd a22b 103d 831b 553c effe 713d
00000390: bfb7 8b3d 9497 65bd 101f 3fbd 6335 39bb
000003a0: 8ffc ffbc e656 6ebd 0581 3ebd 89d8 ebbc
000003b0: 301d e2bc 54b5 953d b21f ddbb ca46 753d
000003c0: c9d3 65bd c08c 6d3d 5be0 873b 0b62 93bd
000003d0: d2d2 a33d c8d7 aa3d fddb 863d d3ca 483c
000003e0: b842 3c3d da7a 00bc 1ac8 11bd 4a9b aa3d
000003f0: 174a 2abc 0df1 023d 1904 9d3d 05e8 9f3d
-0.06671666 0.0025151763 -0.07447581 0.07459771 -0.05835567 -0.03294632 -0.010814113 -0.07565783
0.04305951 0.07350145 -0.047693875 -0.01771239 -0.08077533 -0.03821524 -0.059348915 0.013905164
-0.06573529 -0.023774369 0.057557575 -0.004085506 0.036220253 0.037211 0.08622525 -0.0067186803
0.017079672 0.07309321 0.01734501 0.0080481 0.058582585 0.02627527 -0.072698675 -0.058291312
0.07222218 -0.031221086 -0.047857165 0.04470086 -0.08517099 0.036583688 0.07020993 -0.036145687
0.0030788833 -0.020142384 -0.029404802 0.001924946 -0.066256896 -0.0030523224 -0.0060609165 -0.024273591
-0.014514324 0.024119781 -0.06908512 0.026777985 0.019805647 -0.047524013 0.0005449102 -0.07910583
0.024499616 -0.029585151 0.031423066 0.03614061 0.06386226 -0.012251467 -0.06824994 0.014846569
0.03629809 0.055616558 0.022634141 -0.05151047 -0.038525812 -0.013650768 -0.0786243 0.0017310833
-0.031159477 -0.034896635 -0.026838243 -0.040300213 -0.020089654 -0.058179565 -0.06785883 0.062851496
0.05226071 0.0072952406 -0.007837208 -0.04174646 -0.045735072 -0.03159353 -0.00422232 -0.017996022
-0.036401622 -0.049695533 -0.08161169 0.07502944 -0.06420582 -0.015620296 0.010704298 0.046508554
-0.007860286 -0.084352024 0.061567683 0.06466005 0.057300378 0.00011896595 -0.04714495 0.078123935
-0.069745265 0.07233546 0.004677107 -0.06404721 -0.04022121 0.027027583 0.052524917 0.028429076
0.075405926 0.023504756 0.07615108 -0.021707075 0.030241175 0.05630042 0.07329152 -0.012304294
-0.026165046 0.012151782 -0.021163337 -0.027910445 -0.02121479 -0.08287986 -0.04023062 0.04413167
0.07043575 -0.036589414 -0.06657309 -0.068629034 0.03872806 -0.076232545 0.05864921 0.0669583
-0.024947857 -0.0036449085 -0.062781684 -0.055834092 0.036484882 -0.0054047457 -0.04385308 -0.048708774
-0.043074865 -0.023174753 0.030358987 -0.046732105 -0.049411308 0.031627 -0.06518184 0.067571536
0.04419739 -0.026829286 -0.004684877 -0.0003815961 -0.02769445 0.021069938 0.0649644 -0.056924377
-0.0056105796 -0.031221922 0.033316992 -0.026245039 -0.0052743186 0.04746413 -0.035309903 -0.03736519
0.019056236 -0.06342089 0.037857115 0.06537482 -0.0027253677 0.07022264 -0.015370121 0.051333446
-0.04487848 0.04354883 -0.027521903 0.05876869 -0.035218105 -0.03056455 0.078103244 -0.021447562
-0.045316465 -0.067319386 0.029017868 0.06746835 0.010722129 0.074497804 0.028117256 0.045020968
0.058711134 0.081228495 -0.008677314 -0.04016353 -0.019843662 -0.032197747 0.025401827 -0.049632814
0.008927897 0.057412315 0.0012341082 0.020551762 -0.021909585 -0.049522735 -0.060918674 0.008218899
0.008822562 0.0011847707 -0.0594405 0.08698893 -0.043708183 -0.068743005 0.051412147 -0.0033371933
-0.04902414 -0.07878244 -0.0013435031 -0.026520798 0.046154957 -0.063539706 0.012319026 0.0041136905
-0.0468681 0.03519786 0.013007048 0.059081014 0.06822156 -0.05605276 -0.046660483 -0.002826058
-0.031248359 -0.05818834 -0.04650976 -0.028789775 -0.027601808 0.07309976 -0.006748163 0.059881963
-0.056110177 0.057995558 0.0041466183 -0.071964346 0.07999195 0.08341938 0.06584928 0.012255388
0.045962065 -0.00784179 -0.035591222 0.083304 -0.010393641 0.031968165 0.07666797 0.07807926

layer2.bias f4 [10]
00000000: dab4 3c3d 47a3 823c 85be afbb 3fde 913c
00000010: 2271 973c 387f 7bbc 663c b73d 9adf febc
00000020: 5a6f 0f3d 8f6f 533d
0.04607091 0.015946997 -0.005363288 0.01780617 0.018486563 -0.0153501555 0.08947067 -0.03111248
0.035018303 0.051620062

readout.weight f4 [1, 10, 5, 5]
00000000: 8d0c 0f3d be2e 173d 937d 10bb 6812 503d
00000010: 9545 5e3d b4b1 303d c6f4 673d 9457 063d
00000020: 217d a83c e986 19bd fc31 57bc 63a1 9b3c
00000030: dc9c 703b bf64 313d e08e 26bd 4dac 49bc
00000040: 991b eebc a797 7dbc 8372 033c efca ff3c
00000050: b720 38bc 5661 a2bc 5937 ffbc e886 163d
00000060: 3faa 6fbd 2c41 efbc ae9b 053d 471c 92bd
00000070: 58b4 813b d41f e53c da07 3dbd a979 9f3c
00000080: 9d88 5e3c 088e 78bd 4711 3dbd 45bd 9abd
00000090: 46ed d1bc c2a7 16bd d447 a0bc 1421 e5ba
000000a0: 2693 13bd 3baf bdbc 8bc9 3d3b 0bdf 1bbd
000000b0: 6ca5 eabc 5810 9a3c 0ad4 a33c dbde c8bc
000000c0: 1eb3 9cbc 473d f8bc d1a2 5c3d dcf2 a9bb
000000d0: 731c fa3c 58bf b3bc bce9 8bbc 0620 6abd
000000e0: 9a94 2a3d f16b 6dbd b57c 503d 18eb e43c
000000f0: e60b 973b e8e1 11bc 6d72 773c 0f31 c639
00000100: 2413 aa3c 3d50 dabc b4f5 8dbd 8a1e 8fbd
00000110: 8a30 a0bd 4a27 5dbd 91e4 ba3c 7d52 2cbd
00000120: ee5e 143d 0afa 89bc b9bc 1ebd 07d3 2bbd
00000130: 173c bfbc ec83 38bb 390d a3bb 25ea a33c
00000140: 29b2 8abd 18ac cdbc 24d5 053d 9077 08bd
00000150: d504 85bc 6878 063d 1b0b a5bc e90d 48bd
00000160: 6fb6 5fbd 4b13 79bd 2c42 26bd 82e5 14bd
00000170: 2af0 32bd 0084 7abb 055f f439 e59b 023d
00000180: ac03 88bd f2b7 b6bb 162d 3cbd 33c6 1f3d
00000190: 771c 383d af2e 053d 26b1 a83b 1333 51bd
000001a0: 4a07 66bc 6cc9 143d 5b59 74bd b45b 4fbd
000001b0: 2449 253d b625 033d 0012 b73c 6d09 60bd
000001c0: ba08 48bd 81ad aebc 8dcb 3e3c 3314 7fbd
000001d0: 48dc d6bc 96de fe3c 9b33 2cbd 8c70 2cbd
000001e0: 9de8 8f3c 25cd 69bd 2a75 5dbc e42e 0bbc
000001f0: 0cc6 9639 e8ed 3fbc 8f75 843b 6b87 6d3c
00000200: 3d6c 11bd 7751 2d3d b1aa b33c f516 05bc
00000210: 718a 8c3d 5633 4ebd fcd6 0b3d db03 12bd
00000220: f608 1fbd cb5c 7b3d 2a62 62bc 9ecd 8e3d
00000230: b386 5abd 4d37 3f3c d39a 8dbd b9f9 2fbb
00000240: 13a6 f13c 802e da3b 9acd 333d e6ba 2a3c
00000250: 7b19 37bd bc48 94bc f125 ac3b b789 023d
00000260: eabb 353d 6ce5 7abd 09e6 abbc 4b92 6d3c
00000270: 82ec 483d dd55 df3c 823e 7bbd e57c 93bd
00000280: 826d 84bd b14f 52bd a9ec 203c 4224 afbc
00000290: e52a 373d 4692 c0ba f848 0b3d 2265 64bd
000002a0: d6de 493c 3959 41bd 811e 4cbc f286 13bd
000002b0: 3c23 43bd 7238 4dbc 2161 91bd 5294 82bd
000002c0: fcae 8fbd 359d 70bd b825 98bd 7deb 8fbd
000002d0: 7ce5 0dbd 96e2 6e3c 2373 2ebc 02d2 93bd
000002e0: 990d 573d cb7b 003c 6f97 dabc 5991 813b
000002f0: 9ba1 5ebd 9af8 183d 1b5d 493d 9b8c 2f3c
00000300: ef99 83bd 2a72 e03c 09d6 89bd 5004 11bd
00000310: 58c6 e239 e7c4 553d e7f3 90bd b2b6 2c3c
00000320: 2a4c 673d 4424 8b3c e2c7 7d3c 1749 e53c
00000330: 0f2f dbbc b536 b93c a290 75bd d553 68bd
00000340: ed3e ab3c 1e47 b43a 434a 733c 2fd2 573c
00000350: 2ebd 9cbc f0a1 98bc 4862 43bd 1a1a edbc
00000360: ce9d b33c ad63 493d 4075 803d 6acb 1e3c
00000370: d859 033d 0f4e febc 461d 313c 2f53 f2bc
00000380: ab64 16bc 4af9 28bd 4b53 b83b 54a5 0cbd
00000390: 476b 873c 1c74 613d 69f3 27bc e527 e2bc
000003a0: 36af 5e3d bcae 3e3c 00c5 72bd 31db 9ebb
000003b0: f7b0 653d 4443 613c 4a6b d5b8 0094 633d
000003c0: df91 93bc 2018 1dbc 9c59 79bc 0438 fc3c
000003d0: db12 383d cdec 76bd 80f5 42bd 585f 09bd
000003e0: 8c46 2bbd ec6d 91bc
0.03492408 0.03690981 -0.0022047504 0.050798804 0.054265577 0.04313822 0.05662992 0.032798365
0.020567479 -0.037482176 -0.013134476 0.018997854 0.003671459 0.04330897 -0.0406636 -0.012309146
-0.029065894 -0.015478051 0.008022907 0.031224696 -0.011238269 -0.019821804 -0.031154322 0.03674975
-0.05851197 -0.029205881 0.03261917 -0.071343 0.003958266 0.027969278 -0.046150066 0.019467192
0.013582376 -0.060682327 -0.046159055 -0.075556315 -0.025625836 -0.03678108 -0.0195655 -0.0017481172
-0.036029004 -0.023154845 0.002895924 -0.038054507 -0.028643332 0.018806621 0.019998569 -0.024520328
-0.019128378 -0.030302657 0.05386621 -0.005186422 0.030531144 -0.021941826 -0.017079227 -0.057159446
0.041645624 -0.05796427 0.05090018 0.027944133 0.0046095727 -0.008903958 0.015102965 0.00037802054
0.02076108 -0.026649589 -0.0693163 -0.06988247 -0.07821758 -0.053992547 0.022814067 -0.042070854
0.036223345 -0.01684286 -0.0387542 -0.0419493 -0.023344083 -0.0028154803 -0.0049759415 0.02000911
-0.067722626 -0.025106475 0.03267397 -0.03331715 -0.016237656 0.032829672 -0.020146897 -0.04884139
-0.05461734 -0.060809415 -0.04059045 -0.03635169 -0.04368607 -0.003822565 0.00046610102 0.031886954
-0.06641325 -0.005576127 -0.045941435 0.039007377 0.04494902 0.032515224 0.005148071 -0.0510741
-0.014039824 0.036324903 -0.05965553 -0.050624564 0.040352955 0.032018386 0.02234745 -0.05469649
-0.048836447 -0.021322967 0.01164521 -0.062275123 -0.026228085 0.031111997 -0.042041402 -0.04209952
0.017566973 -0.057080407 -0.013516704 -0.008495066 0.00028757786 -0.011714436 0.0040423344 0.014497618
-0.035503615 0.04231402 0.021931978 -0.008123149 0.06862343 -0.050341927 0.034140572 -0.035648208
-0.038826905 0.06136779 -0.013817349 0.06972812 -0.053351115 0.0116709 -0.06914296 -0.0026851727
0.029498136 0.0066583753 0.04389725 0.010420537 -0.044702034 -0.018101089 0.0052535464 0.031869616
0.044368662 -0.06125395 -0.020983713 0.014500211 0.049053676 0.027262622 -0.06133891 -0.07201556
-0.064661995 -0.05134553 0.009822049 -0.021379594 0.04471864 -0.001469203 0.034005135 -0.05576051
0.012321195 -0.04720423 -0.012458445 -0.036017366 -0.047641024 -0.012525665 -0.07098604 -0.06375946
-0.070157975 -0.058743674 -0.07429069 -0.07027338 -0.03464268 0.0145803895 -0.010647568 -0.0721779
0.052503202 0.007842015 -0.026683537 0.0039540944 -0.054353338 0.03734646 0.049161058 0.010714675
-0.06425845 0.027398188 -0.06730277 -0.035404503 0.00043253857 0.052189734 -0.07077771 0.010541605
0.05646912 0.016985066 0.01548955 0.027988954 -0.026755838 0.022609094 -0.059952386 -0.056720573
0.020904029 0.0013754105 0.014849248 0.01317267 -0.019133177 -0.018631905 -0.04770115 -0.02894311
0.021925833 0.049167324 0.06272364 0.009692052 0.032068104 -0.03104308 0.010810202 -0.02958068
-0.009179275 -0.041253366 0.0056251637 -0.034337357 0.016530646 0.05504237 -0.010250905 -0.027606914
0.054366313 0.01163834 -0.059269905 -0.004847907 0.05607697 0.0137489475 -0.000101766156 0.055561066
-0.018013893 -0.009588271 -0.015219118 0.03078843 0.044939857 -0.060284425 -0.04759741 -0.033538193
-0.041815326 -0.01775261
